f2/frontend/my-new-frontend/public/models/neurop_lite.onnx (onnx, 143194 bytes, 25 tensors)

image_encoder.conv1.weight f4 [32, 3, 7, 7]
0	0x3d1717c9	0.036887918
1	0x3d9d7e71	0.076901324
2	0xbd8bd003	-0.068267845
3	0xbd646e57	-0.05576929
4	0xbd3d4540	-0.04620862
5	0xbc74a88b	-0.014932762
6	0xbd285347	-0.041095044
7	0x3dcdc691	0.10047639
8	0x3c79682d	0.015222591
9	0xbc627c20	-0.013823539
10	0xbd96264d	-0.07331524
11	0xbda887c4	-0.0822902
12	0xbe16796d	-0.14694758
13	0xbde530b6	-0.111909315
14	0xbb3d1d0e	-0.002885643
15	0x3c3d895e	0.011568395
16	0xbc96f944	-0.018429406
17	0xbd23ada4	-0.03996052
18	0xbe29b349	-0.16572298
19	0xbe1397ee	-0.14413425
20	0xbd6bd5ac	-0.05757682
21	0x3da2d44a	0.07950647
22	0xbcb9eea4	-0.0226968
23	0xbbcb7506	-0.0062090186
24	0xbdcf627d	-0.10126207
25	0xbdd614dd	-0.10453198
26	0xbcc69186	-0.024239313
27	0xbe2aa1ee	-0.16663334
28	0xbd2cb833	-0.042167854
29	0xbcc9e110	-0.024643451
30	0xbd93335a	-0.07187529
31	0x3cbbb470	0.022913188
32	0xbdea9556	-0.11454265
33	0xbdc96283	-0.09833243
34	0xbde6c110	-0.112672925
35	0xbd6a8412	-0.05725486
36	0xbce85d43	-0.028364783
37	0x3d564634	0.052313045
38	0x3cbb0827	0.022831036
39	0x3c4c73a6	0.012478745
40	0xbd12959e	-0.035787217
41	0xbdb1fdd9	-0.08690996
42	0x3d41e5bf	0.047338244
43	0xbd430048	-0.04760769
44	0xbd6cf7a4	-0.057853356
45	0xbd4598b3	-0.04824133
46	0x3d0a99a2	0.033837922
47	0x3c00f4af	0.007870837
48	0xbda07ee2	-0.07836701
49	0x3d0ea3fb	0.034824353
50	0x3df47d10	0.11937916
51	0x3e0380fc	0.12842172
52	0x3dc62d3d	0.09676597
53	0x3d6a3f51	0.05718929
54	0x3d9779d0	0.07396281
55	0xbd9245a6	-0.07142191
56	0x3d1ffcd2	0.039059468
57	0xbcec5843	-0.02885068
58	0xbd8bde0f	-0.06829464
59	0xbd6aefef	-0.057357725
60	0xbbb6ba04	-0.005576374
61	0xbb03db83	-0.0020119853
62	0xbdc5d13d	-0.0965905
63	0x3d4755a1	0.048665646
64	0x3da31299	0.079625316
65	0xbd08155c	-0.033223495
66	0xbd4ffcb5	-0.05077811
67	0xbd9009ae	-0.07033096
68	0xbc6888ce	-0.014192773
69	0xbb8eedb1	-0.004361831
70	0xbd41339e	-0.047168367
71	0xbc2f54e5	-0.010701393
72	0xbc18828a	-0.009308467
73	0x3c83be40	0.01608193
74	0xbc781a39	-0.015142971
75	0x3c598d89	0.0132783735
76	0xbd8a389f	-0.06749081
77	0xbd82d506	-0.06388287
78	0x3c7d79ea	0.015470961
79	0xbd9595b6	-0.07303946
80	0xbdaacae4	-0.083394796
81	0x3d4d12f7	0.050066914
82	0x3d52ec41	0.05149484
83	0xbdfd463c	-0.12366912
84	0x3d6db515	0.05803402
85	0x3d3d36ae	0.046194725
86	0x3c97ddcf	0.018538384
87	0x3c2b5f89	0.010459789
88	0x3d6a6ea8	0.057234436
89	0xbcf02947	-0.029316558
90	0x3c069750	0.008214787
91	0x3de3293a	0.11091848
92	0x3e080f66	0.13287124
93	0x3daed1a5	0.0853608
94	0xbcc20253	-0.023682749
95	0xbc7a9ead	-0.01529662
96	0x3d67a8cd	0.056557465
97	0xbbea1ab5	-0.007144297
98	0xbc9ee46c	-0.01939603
99	0x3b37f23a	0.0028067962
100	0x3ddfd091	0.10928453
101	0x3dcd1d52	0.10015358
102	0x3cdb4e9f	0.026770888
103	0x3d5c4dd2	0.053785153
104	0xbd2d2f67	-0.042281535
105	0x3ca270a5	0.019829104
106	0xbd620181	-0.055177215
107	0xbdc75f56	-0.09734981
108	0xbc7b9f04	-0.0153577365
109	0x3cbb91de	0.022896703
110	0x3c8c2056	0.017105263
111	0x3d9469ab	0.07246717
112	0xbd0b22db	-0.033968788
113	0x3d83d517	0.06437128
114	0x3b6f7937	0.0036540756
115	0xbde66c13	-0.11251082
116	0xbd2b3ad8	-0.041804165
117	0x3d0fc1d7	0.03509697
118	0x3c6a56a2	0.014302881
119	0x3ccf82f2	0.025330994
120	0x3c102fa5	0.008800422
121	0xbd86d31d	-0.065832354
122	0xbdb78bfa	-0.08962245
123	0x3c1187bc	0.008882459
124	0xbd7a3220	-0.06108296
125	0xbd8e8827	-0.06959563
126	0x3b88903d	0.004167585
127	0xbd599069	-0.053116236
128	0xbd97d48d	-0.07413588
129	0xbdcfee11	-0.101528294
130	0xbcc5428c	-0.024079584
131	0x3d4ba736	0.04972001
132	0xbd805672	-0.06266488
133	0x3d901d66	0.07036857
134	0x3de0adc1	0.10970641
135	0x3a52a760	0.0008035805
136	0x3c524fe8	0.012836434
137	0x3bd81d99	0.006595325
138	0x3d674e05	0.05647089
139	0x3d4765a6	0.048680924
140	0x3e379445	0.17927654
141	0x3df78e3e	0.120876774
142	0x3ddfaaaa	0.109212235
143	0x3c71c6fc	0.014756914
144	0xbd4c4890	-0.04987389
145	0x3ab0213b	0.0013437638
146	0x3d82729d	0.06369517
147	0x3befa27c	0.007313071
148	0xbd1e9f07	-0.03872588
149	0xbdb9c436	-0.090706274
150	0xbdd352db	-0.10318538
151	0xbd911f7b	-0.070860825
152	0xbcdbe433	-0.026842212
153	0x3d38942e	0.04506319
154	0x3d6a134d	0.057147313
155	0xbdb9d0f1	-0.090730555
156	0xbcea5e37	-0.028609378
157	0xbe097b0e	-0.13425848
158	0xbd00db81	-0.031459335
159	0xbce0fe25	-0.027464936
160	0x3a8e1b57	0.0010841888
161	0x3cdbf34c	0.026849411
162	0xbd95f27f	-0.07321643
163	0xbdec0375	-0.11524097
164	0xbce03aab	-0.027371725
165	0x3cd48e20	0.025946677
166	0xbab6ef90	-0.0013956893
167	0x3db09142	0.08621456
168	0xbd60cee8	-0.05488482
169	0xbc3144da	-0.010819638
170	0x3d2099d9	0.03920922
171	0xbd09ddba	-0.03365872
172	0x3dd9a0ce	0.10626374
173	0x3d3f4a7b	0.04670189
174	0xbcd1ebe2	-0.025625173
175	0x3d591f3d	0.053008307
176	0xbcc7ab28	-0.024373606
177	0xbd6ec8de	-0.05829703
178	0x3d7d2d56	0.061810814
179	0xbd41a98f	-0.047280844
180	0x3c946d60	0.01811856
181	0x3d3374a1	0.043812398
182	0x3d9e542a	0.07730897
183	0x3c3728c4	0.011179153
184	0x3cd4cf04	0.025977619
185	0x3bfd72a1	0.007734612
186	0xbcb2ef99	-0.021842765
187	0xbc7a7df2	-0.015288817
188	0xbca25cea	-0.019819696
189	0x3d871e6e	0.06597601
190	0x3d59bdc6	0.053159498
191	0x3d39a83e	0.045326464
192	0xbdb09b20	-0.08623338
193	0x3b4cdec4	0.0031260708
194	0xbd549200	-0.05189705
195	0xbc90611d	-0.017624432
196	0xbd29aa11	-0.041421954
197	0x3c2dc0ce	0.01060505
198	0xbdb80910	-0.089861035
199	0xbc8a1dc4	-0.016859896
200	0x3d18f073	0.037338685
201	0x3d828353	0.06372704
202	0xbd69afb8	-0.057052344
203	0xbd854830	-0.06507909
204	0xbdd2e40d	-0.102974035
205	0xbd4169d1	-0.047220055
206	0xbdca453c	-0.09876487
207	0x3d7869c0	0.060647726
208	0x3c6e301c	0.014537837
209	0xbc138df7	-0.009006015
210	0x3d4eb36a	0.05046407
211	0xbd035660	-0.032064795
212	0xbd31d191	-0.04341275
213	0xbcd2e5a5	-0.025744269
214	0x3d42bc77	0.047543015
215	0x3d1fe260	0.039034247
216	0xbd129154	-0.035783127
217	0xb9a2d722	-0.00031059334
218	0x3d92106d	0.07132039
219	0xbda82d35	-0.082117476
220	0x3c961558	0.018320724
221	0x3e19ce02	0.15019992
222	0x3d5b4e20	0.053541303
223	0x3cd5294e	0.026020672
224	0xbd4c2ce4	-0.0498475
225	0x3d0edbf8	0.034877747
226	0xbd7060b0	-0.05868596
227	0x3bbccfef	0.0057620923
228	0x3cc82983	0.024433857
229	0x3c113536	0.008862784
230	0x3d348f82	0.044082172
231	0x3deb4044	0.11486867
232	0x3cc1a007	0.023635877
233	0x3db13b2f	0.086538665
234	0x3d77bf97	0.06048545
235	0xbc7f406d	-0.015579325
236	0x3d68d148	0.05684021
237	0xbc97ad58	-0.018515274
238	0x3c39cf65	0.011340951
239	0x3d10fbf8	0.035396546
240	0x3d21103e	0.03932213
241	0x3d5f168f	0.054464873
242	0xbba9330e	-0.005163557
243	0x3c42a921	0.011881144
244	0x3d77dc63	0.06051291
245	0xbd0700da	-0.032959796
246	0x3d368967	0.04456463
247	0xbdc728a1	-0.09724546
248	0xba99fcbc	-0.0011748294
249	0x3cec9170	0.028877944
250	0xbd03ed98	-0.03220901
251	0xbbf4a93e	-0.0074664643
252	0x3d92e89e	0.071732745
253	0xbd9cb597	-0.07651823
254	0xbe016b83	-0.12638669
255	0xbdb48222	-0.08813883

image_encoder.conv1.bias f4 [32]
0	0xbe83f177	-0.2577016
1	0x3d39f7ef	0.045402464
2	0xbe0219aa	-0.12705103
3	0xbe16e244	-0.14734751
4	0xbe04b904	-0.12961203
5	0x3ddca9a5	0.107745446
6	0xbdeefc1b	-0.11669179
7	0xbdd91389	-0.10599429
8	0x3d64cba5	0.055858273
9	0x3cb258fc	0.021770947
10	0xbe042460	-0.12904501
11	0xbc8927a1	-0.01674253
12	0xbde99f58	-0.114073455
13	0x3e3ce622	0.18447164
14	0xbda5a78c	-0.08088598
15	0xbd1f50c4	-0.038895383
16	0x3dbe0d78	0.09279913
17	0xbdf1228e	-0.11774169
18	0x3dbe5f96	0.09295575
19	0xbe354a39	-0.17704095
20	0x3d876f19	0.06612987
21	0x3da94362	0.082648054
22	0x3d0d4dff	0.03449821
23	0xbdfeb74a	-0.12437303
24	0xbd2e3031	-0.042526428
25	0xbe192006	-0.14953622
26	0xbe09145f	-0.13386677
27	0xbd87ba2c	-0.06627306
28	0xbe4687ae	-0.19387695
29	0xbe43b1ab	-0.19110744
30	0xbd2dc477	-0.04242369
31	0x3e06494d	0.131139

image_encoder.conv2.weight f4 [32, 32, 3, 3]
0	0x3cf15f25	0.029464314
1	0xbd28b6d2	-0.041189976
2	0xbd3facb2	-0.046795554
3	0x3d01c485	0.031681556
4	0xbd6567b0	-0.056007087
5	0x3d12dc19	0.035854433
6	0x3d9ad5d5	0.075603165
7	0xbd49b607	-0.04924586
8	0x3d9d8e1f	0.07693123
9	0x3da98816	0.082779095
10	0x3d241b04	0.040064827
11	0x3d8e7643	0.069561504
12	0x3d01c4f9	0.03168199
13	0x3c618efb	0.013766999
14	0x3d731989	0.059350524
15	0x3db7dad6	0.089772865
16	0x3dcf9712	0.10136236
17	0x3d9c4167	0.07629662
18	0xbd57ff7d	-0.052733887
19	0xbcf7a405	-0.030229578
20	0xbdf6e312	-0.12055029
21	0x3c1f61ac	0.009727877
22	0x3d1f572f	0.038901504
23	0xbbf4ab6b	-0.0074667237
24	0x3cfc7724	0.03081853
25	0x3da3b9e1	0.07994438
26	0x3dcd1a35	0.10014764
27	0xbd37e2da	-0.044894077
28	0xbd545b25	-0.051844735
29	0xbd9328ff	-0.07185554
30	0x3a1faa02	0.0006090702
31	0x3b53a378	0.003229348
32	0xbd4e0ea4	-0.05030693
33	0x3c39f384	0.011349563
34	0xbc75fdc0	-0.015014112
35	0xbda94e69	-0.08266909
36	0x3d23d2da	0.039996006
37	0x3cf06f45	0.029349932
38	0xbb07e488	-0.002073558
39	0x3c3b8bb7	0.011446885
40	0x3b98c3e7	0.0046620253
41	0x3bbc65ec	0.0057494547
42	0x3d92807d	0.071534134
43	0x3bc8dd7b	0.006129918
44	0x3b9597ba	0.0045652064
45	0x3d4fb047	0.05070522
46	0x3dc02bb9	0.093833394
47	0xbc94af32	-0.018149946
48	0xbc081d1b	-0.008307721
49	0x3d6bbd08	0.05755332
50	0xbb2e4584	-0.0026591728
51	0x3ce391b3	0.027779436
52	0x3d669302	0.05629254
53	0xbc93c40c	-0.018037818
54	0x3cc98865	0.02460117
55	0x3dabc49b	0.08387109
56	0xbcf125ee	-0.029437032
57	0x3c615c7d	0.013754961
58	0x3c85a8a8	0.016315773
59	0xbd1311a1	-0.035905484
60	0xbc9e7a55	-0.019345442
61	0xbbbafaae	-0.005706153
62	0xbac73bf2	-0.001520036
63	0x3c100891	0.008791105
64	0x3da48fb2	0.0803522
65	0x3c2dc25f	0.010605424
66	0x3d47f8f2	0.048821397
67	0x3cf17518	0.02947478
68	0xbbac40ac	-0.005256733
69	0x3cdeeecb	0.027213475
70	0xbb827fc1	-0.0039825146
71	0xbd296d68	-0.041364104
72	0xbc64a9b3	-0.013956475
73	0xbd9c7a4e	-0.07640515
74	0xbd935ec9	-0.07195813
75	0xbd879f22	-0.06622149
76	0xb69c8b52	-4.6653813e-06
77	0xbd59073c	-0.052985415
78	0x3d1026b1	0.03519315
79	0xbc8af543	-0.016962653
80	0x3bb4e4e1	0.0055204486
81	0x3d831503	0.06400492
82	0x3c65685d	0.014001933
83	0xbd3e4ec9	-0.046461854
84	0xbb42c9b4	-0.0029722275
85	0x3981669a	0.00024681241
86	0xbc08bf68	-0.008346416
87	0xbd3d7dfb	-0.046262722
88	0xbdcd2e92	-0.10018648
89	0xbd81d3fd	-0.06339262
90	0xbd12847b	-0.035770874
91	0xbd4645e4	-0.048406497
92	0xbd235a6d	-0.03988116
93	0xbd200387	-0.039065864
94	0xbd193b52	-0.037410088
95	0x3caf131c	0.021371417
96	0xbcebed9b	-0.028799823
97	0xbdbd14a0	-0.092324495
98	0xbd13b213	-0.036058497
99	0x3d282b89	0.041057143
100	0xbdb9f519	-0.09079952
101	0xbd620a9e	-0.055185907
102	0xbca5b682	-0.020228628
103	0xbc9e6461	-0.019334974
104	0xbdcdb51f	-0.10044312
105	0xbdac92fd	-0.08426473
106	0xbdaf9a1c	-0.08574316
107	0xbcf7d89a	-0.03025465
108	0x3bf17df4	0.007369751
109	0x3da18849	0.078873225
110	0x3e01d212	0.12677792
111	0xbbeee291	-0.0072901924
112	0x3b72becf	0.003704
113	0x3c199051	0.009372787
114	0x3c3fc341	0.011704267
115	0x3d7618f5	0.060082395
116	0x3d86494e	0.065569505
117	0x3c3c0465	0.011475657
118	0x3b41d704	0.0029577622
119	0x3d8a243d	0.06745193
120	0x3ca4e0f7	0.020126803
121	0xbc2ba813	-0.010477084
122	0xbd22f032	-0.03977985
123	0x3da5850a	0.08082016
124	0xbc7f48e7	-0.015581346
125	0x3d558903	0.052132618
126	0x3e4da4cc	0.20082396
127	0x3e11b882	0.1423054
128	0x3d765bb8	0.060146064
129	0x3d9926a4	0.07478073
130	0x3d5300cd	0.051514436
131	0x3d930252	0.07178177
132	0x3dea71a2	0.11447455
133	0x3d3f24b3	0.04666586
134	0x3d280485	0.041019935
135	0x3d761f6e	0.060088567
136	0x3da0ddf6	0.07854836
137	0x3d922234	0.0713543
138	0x3ce5ee16	0.02806763
139	0x3c714964	0.01472697
140	0xbb8f7d1e	-0.004378929
141	0xbc6e6c0c	-0.014552128
142	0x3c22253d	0.009896574
143	0x3cda2604	0.026629455
144	0x3c9a4029	0.018829422
145	0xbd2af4c7	-0.041737344
146	0x3cab95cc	0.020945452
147	0xbcb796e7	-0.022410823
148	0x3d3ea8ce	0.046547703
149	0x3d715684	0.0589204
150	0xbb24432a	-0.0025064447
151	0xbcc2967a	-0.023753393
152	0x3adb404d	0.0016727537
153	0x3db291b2	0.087191954
154	0xbde96f8f	-0.11398231
155	0xbe333f83	-0.17504697
156	0xbc76d0eb	-0.015064458
157	0xbd54acf3	-0.05192275
158	0xbe52de4f	-0.20592616
159	0x3c90790a	0.01763584
160	0xbdc59963	-0.09648397
161	0xbdfe6c39	-0.124229856
162	0xba9a2e13	-0.0011762999
163	0xbd27fe2c	-0.04101388
164	0x3d15c1d5	0.036561806
165	0x3baddb67	0.005305696
166	0x3c76e5c4	0.015069429
167	0x3d99dcaa	0.075127915
168	0x3cef8f61	0.029243173
169	0xbca61ed8	-0.02027838
170	0x3dd23e4e	0.1026579
171	0x3d1bc3e3	0.03802861
172	0x3c3d66e9	0.01156018
173	0xbc82d920	-0.015972674
174	0xbc43a2d0	-0.011940673
175	0xbd4665d3	-0.04843695
176	0xbc837945	-0.016049037
177	0xbc675234	-0.01411872
178	0xbd0d0623	-0.03442968
179	0xbd1be872	-0.038063474
180	0xbb96c42f	-0.0046010236
181	0xbd082305	-0.033236522
182	0x3d628ffc	0.055313095
183	0x3d91108e	0.07083236
184	0x3d8cd52f	0.06876599
185	0x3b9384cb	0.004501914
186	0x3d9f669b	0.07783242
187	0x3d362154	0.044465378
188	0x3d8d4afa	0.06899066
189	0x3cb22e3f	0.021750567
190	0x3d3f8d6d	0.046765734
191	0xbd95b567	-0.073099904
192	0x3d69bb85	0.0570636
193	0x3d2033fa	0.03911207
194	0x3ce16b11	0.027516874
195	0xbc226515	-0.009911795
196	0xbc665dc2	-0.01406044
197	0x3cd4f273	0.025994515
198	0x3d4b8f97	0.049697485
199	0xbbe1c4fb	-0.006889937
200	0x3d414a91	0.047190253
201	0xbd1ee76b	-0.038794916
202	0x3bcecba3	0.0063108965
203	0x3c9400a6	0.018066715
204	0xbd7caa45	-0.06168582
205	0xbd7b1892	-0.06130273
206	0x3d0394af	0.032124218
207	0x3b0beec3	0.002135203
208	0xbd927e62	-0.07153012
209	0xbdbe29de	-0.09285329
210	0xbc2563aa	-0.010094563
211	0xbdef6e0f	-0.11690914
212	0xbe07cbee	-0.13261387
213	0xbdfa321f	-0.12216591
214	0xbdc766fd	-0.0973644
215	0xbd6c0d79	-0.057630036
216	0xbba15048	-0.0049229003
217	0x3d3d2bd8	0.04618439
218	0xbc9d5497	-0.019205375
219	0xbc6300a8	-0.013855137
220	0xbd10433a	-0.035220362
221	0xbdea123f	-0.114292614
222	0x3d8c5dc9	0.068538256
223	0xbd8f89fe	-0.07008742
224	0xbe05c806	-0.13064584
225	0x3d12d634	0.03584881
226	0xbd3d2111	-0.046174113
227	0x3d1ded92	0.038556643
228	0x3ce0bd6f	0.027434079
229	0xbc0f282e	-0.008737607
230	0xbd1995dd	-0.037496436
231	0xbd04c122	-0.03241075
232	0x3cf9cfd9	0.030494617
233	0x3bd8a665	0.0066116326
234	0x3d964b07	0.07338529
235	0x3c89f4b3	0.016840314
236	0x3dea61b9	0.1144442
237	0x3c5c1550	0.013432816
238	0x3d932c06	0.07186131
239	0x3d133423	0.035938393
240	0x3d73f1c8	0.059556752
241	0x3de0d1d1	0.10977519
242	0x3c0a4e31	0.008441494
243	0xba4fd1f5	-0.00079277094
244	0x3d296cb4	0.041363433
245	0x3d97fd47	0.07421356
246	0xbd462dc6	-0.048383497
247	0x3aadf4a3	0.001327176
248	0x3d9d5bef	0.076835506
249	0xbcb20ef5	-0.021735648
250	0x3cd13409	0.025537508
251	0x3ccdac49	0.025106566
252	0x39a7411f	0.0003190124
253	0x3b8c2a36	0.004277493
254	0x3cedac52	0.029012833
255	0x3d4ffa67	0.05077591

image_encoder.conv2.bias f4 [32]
0	0x3cb01571	0.021494599
1	0x3d9333ea	0.07187636
2	0x3c947fdd	0.018127376
3	0x3c2b84a9	0.01046864
4	0x3dafba2a	0.0858043
5	0xbc9a44c1	-0.018831613
6	0x3dcc6dce	0.09981881
7	0x3ded207d	0.11578462
8	0xbd161794	-0.03664358
9	0xbd814413	-0.06311812
10	0x3de1d315	0.11026589
11	0x3dd308d3	0.103044175
12	0xbd052a43	-0.032511007
13	0xbca9f7ad	-0.020747984
14	0x3ded21f2	0.1157874
15	0x3da11c2a	0.078667
16	0x3d21ab80	0.039470196
17	0x3d7bf25d	0.061510433
18	0xbd1c40ca	-0.038147725
19	0x3dcb438c	0.09924993
20	0xbcdecdb4	-0.027197696
21	0x3db7c169	0.08972437
22	0xbcb99981	-0.022656204
23	0x3e41771f	0.18893097
24	0x3d7bed1d	0.061505426
25	0x3c746c52	0.014918404
26	0x3c5d1cf6	0.013495674
27	0xbb9449d7	-0.004525404
28	0x3d638ffa	0.05555723
29	0xbd1265ef	-0.035741743
30	0xbdb3cc20	-0.08779168
31	0xbd679ee1	-0.056548003

bc_renderer.encoder.weight f4 [64, 3, 1, 1]
0	0xbe513222	-0.2042928
1	0x3ec9f363	0.39443502
2	0x3ef1c02e	0.47216934
3	0xbf0077cb	-0.5018279
4	0xbe592261	-0.21204521
5	0x3f212705	0.62950164
6	0x3cfae39e	0.030626114
7	0xbe92e07c	-0.28686893
8	0xbe22c9d5	-0.15897305
9	0x3ed17a42	0.40913588
10	0xbe0c594d	-0.1370594
11	0x3e843e7a	0.25828916
12	0xbe02eb4b	-0.1278507
13	0x3f0fb528	0.561358
14	0x3e0e7665	0.13912351
15	0xbcf305e5	-0.029665897
16	0x3ee08b15	0.4385611
17	0x3efd99b9	0.49531344
18	0x3e8354cd	0.25650635
19	0x3f0f73a2	0.56035817
20	0xbde86580	-0.113474846
21	0xbf1aaaed	-0.6041706
22	0x3cf800d2	0.030273829
23	0x3d88e668	0.066845715
24	0xbefc5eb5	-0.49291006
25	0xbd80ed41	-0.062952526
26	0x3f13c3b0	0.5772047
27	0xbe33efcd	-0.17571945
28	0x3f181dc7	0.59420437
29	0x3d177be8	0.0369834
30	0xbd82ef56	-0.06393306
31	0xbf1deab2	-0.6168624
32	0x3ee1ebf6	0.44125336
33	0x3e9650b6	0.29358453
34	0x3d70dc91	0.0588041
35	0x3dc74a7d	0.097310044
36	0xbd6dae52	-0.058027573
37	0xbecb402f	-0.39697406
38	0x3e8bdcb7	0.2731683
39	0x3e6d149e	0.23152396
40	0xbeec922e	-0.46205276
41	0xbeac4a0b	-0.3365024
42	0xbe86448f	-0.2622418
43	0x3f1f2ccf	0.6217775
44	0xbeea335c	-0.4574231
45	0x3d780a3d	0.06055664
46	0x3f0d13d9	0.5510841
47	0xbd87b0f0	-0.06625545
48	0x3d976858	0.07392949
49	0xbdcf2fae	-0.10116516
50	0x3decc8d3	0.11561742
51	0x3e89d0f9	0.26917246
52	0x3ec158ee	0.3776316
53	0x3e9aa8fd	0.30207053
54	0x3e67c5b8	0.22634017
55	0xbe3bb522	-0.18330815
56	0xbe9e4a51	-0.30916074
57	0x3e82b52d	0.2552885
58	0xbcab015f	-0.020874677
59	0xbea02418	-0.31277537
60	0xbe3ad148	-0.18243897
61	0xbe225b74	-0.15855199
62	0xbea6af3b	-0.32555565
63	0x3ec2cdf4	0.38047755
64	0xbdd00d00	-0.101587296
65	0xbe9b931f	-0.30385682
66	0xbe05183d	-0.12997527
67	0x3e103f21	0.14086582
68	0xbf18c9d7	-0.59682983
69	0x3f01b40e	0.50665367
70	0x3e824a78	0.2544744
71	0x3e14c81c	0.1452946
72	0xbf0a048d	-0.53913194
73	0xbdb787a4	-0.08961418
74	0x3f1459e8	0.57949686
75	0x3f145199	0.5793701
76	0x3d10dd82	0.035367496
77	0xbe540158	-0.20703638
78	0xbe55e9f8	-0.20890033
79	0x3e177bdd	0.14793344
80	0x3ebca786	0.3684656
81	0x3e362642	0.17788032
82	0x3f0d0c3d	0.550968
83	0x3eca68db	0.39533123
84	0x3e1ca76e	0.15298244
85	0xbda9c753	-0.08289971
86	0x3f208334	0.627002
87	0x3cf128df	0.029438434
88	0x3d66a48e	0.056309275
89	0x3ea59ed6	0.32347745
90	0xbf084096	-0.5322355
91	0x3ec43101	0.38318637
92	0xbf130d33	-0.57442015
93	0xbe25382b	-0.16134708
94	0xbe0a40dd	-0.13501306
95	0xbecff42d	-0.4061598
96	0x3ea6d888	0.32587075
97	0x3b8f67f9	0.004376408
98	0x3ea19b00	0.31563568
99	0xbd22d1de	-0.039750926
100	0xbeebc612	-0.46049553
101	0xbeacf246	-0.3377859
102	0x3e5b32d4	0.21406108
103	0xbde9b349	-0.11411149
104	0xbf054b7b	-0.520683
105	0xbda0fbdb	-0.078605376
106	0xbf2c2a3f	-0.6725196
107	0x3e04184a	0.1289989
108	0x3e86738a	0.26260024
109	0xbf0f36db	-0.5594308
110	0x3d44c964	0.048043624
111	0xbf13e889	-0.57776695
112	0xbcc1a2be	-0.023637172
113	0x3e60d360	0.21955633
114	0xbcd3892d	-0.025822246
115	0xbee7f9ee	-0.4530787
116	0xbd90e9fa	-0.070758775
117	0x3ef66b38	0.48128676
118	0x3e89d399	0.2691925
119	0xbeab4cc9	-0.3345702
120	0x3e527a96	0.20554575
121	0x3b828f7e	0.0039843908
122	0xbf054bd3	-0.52068824
123	0x3d2dbf76	0.04241892
124	0x3d70610f	0.058686312
125	0x3f0119ef	0.50430197
126	0x3e95ff3a	0.29296285
127	0x3f0decf3	0.5543968
128	0xbf2285f4	-0.63485646
129	0x3efc7e80	0.49315262
130	0x3e772aff	0.24137495
131	0x3de8df76	0.11370747
132	0xbee5a301	-0.44850925
133	0x3f0d8dfc	0.55294776
134	0xbe61eb24	-0.22062355
135	0x3e0a2eb4	0.13494378
136	0xbef29152	-0.47376496
137	0xbed62b43	-0.4182988
138	0xbeed3375	-0.4632832
139	0x3e354355	0.17701466
140	0x3ec0cfb3	0.37658462
141	0xbb569552	-0.003274281
142	0x3eae914a	0.34095222
143	0x3d2ec172	0.042664953
144	0x3e06b427	0.1315466
145	0x3ed098cb	0.40741572
146	0xbf08e4e7	-0.5347428
147	0xbc976e50	-0.018485218
148	0xbc668373	-0.014069426
149	0x3d17ae84	0.037031665
150	0xbced5499	-0.028971003
151	0x3ee4ea7c	0.44710147
152	0x3ecf770e	0.4052052
153	0x3edc407e	0.43017954
154	0xbc2a12e6	-0.010380482
155	0xbe82bac0	-0.25533104
156	0x3ea63557	0.3246257
157	0x3b38dd84	0.0028208205
158	0x3f048423	0.51764125
159	0x3f266aa7	0.6500649
160	0xbed24c40	-0.410738
161	0x3ede860e	0.4346165
162	0x3eb5a8b2	0.35480267
163	0xbf0b5f68	-0.54442453
164	0xbef2728a	-0.4735301
165	0x3e084f17	0.1331142
166	0xbe0f4b33	-0.1399353
167	0xbda297a6	-0.07939081
168	0xbf12ef13	-0.5739605
169	0x3e42cb86	0.1902295
170	0x3d9ad7e0	0.07560706
171	0x3ea4600f	0.32104537
172	0xbefbb61f	-0.49162385
173	0x3ea97725	0.33098713
174	0xbe3d1f2c	-0.18468922
175	0x3e2d4684	0.16921431
176	0x3f0bd4fa	0.5462185
177	0x3f1db973	0.616111
178	0x3e947145	0.28992668
179	0xbe74366b	-0.23848884
180	0x3ecdd684	0.40202725
181	0x3e92a1a0	0.28638935
182	0x3eefbf1a	0.46825486
183	0x3e3725e7	0.17885552
184	0xbe2c75fb	-0.16841881
185	0x3f1bdddb	0.608854
186	0xbec41391	-0.38296178
187	0xbe68cf5e	-0.22735354
188	0xbef0ed48	-0.4705603
189	0xbee9587b	-0.45575318
190	0xbe412409	-0.18861403
191	0x3eabfe90	0.33592653

bc_renderer.encoder.bias f4 [64]
0	0xbef32db4	-0.47495806
1	0xbef6c39b	-0.4819611
2	0xbe683678	-0.22677028
3	0xbf0d436b	-0.55180997
4	0xbe8f2183	-0.27955255
5	0xbe949f20	-0.29027653
6	0xbf0347e2	-0.5128156
7	0x3ea9964d	0.33122483
8	0x3e15a00b	0.14611833
9	0xbe8cfffa	-0.27539045
10	0x3dfac23c	0.122440785
11	0x3e113678	0.14180934
12	0x3ea5de96	0.32396382
13	0x3e6e47c4	0.23269564
14	0x3d7e68e3	0.062111747
15	0xbdaf2ef7	-0.0855388
16	0x3d6f5dd7	0.058439102
17	0xbf03ad81	-0.5143662
18	0xbdbc746e	-0.09201895
19	0xbde98d32	-0.11403884
20	0x3e72724b	0.23676412
21	0x3eaa579f	0.33269975
22	0x3e1879d1	0.1489022
23	0xbee612d6	-0.44936246
24	0x3eb3db9e	0.35128492
25	0x3eae34d7	0.3402469
26	0xbec56d05	-0.38559738
27	0x3d61fb7e	0.055171482
28	0xbbcaed1a	-0.0061928155
29	0x3dcf23f2	0.10114278
30	0x3dcb5a22	0.09929301
31	0x3e958e8f	0.29210326
32	0x3dca519d	0.09878848
33	0x3ed57221	0.41688636
34	0x3e453bc8	0.19261086
35	0x3d9253af	0.07144868
36	0x3dcbcfc3	0.09951737
37	0x3ed48420	0.41507053
38	0x3efe4a0c	0.49665868
39	0xbdebfc84	-0.11522773
40	0xbd6fed1b	-0.05857573
41	0xbea5dc64	-0.32394707
42	0xbeae4cf8	-0.34043097
43	0x3e710322	0.23536351
44	0x3eec8537	0.46195385
45	0x3d725b2e	0.059168987
46	0xbecba3e2	-0.3977347
47	0xbe660e27	-0.22466336
48	0x3e4dd7fb	0.20101921
49	0x3e2eba13	0.17063169
50	0x3ed46450	0.41482782
51	0xbdef3bf2	-0.116813555
52	0x3dbe6a9b	0.09297677
53	0xbeaccf89	-0.33752087
54	0xbda6f8e3	-0.0815294
55	0x3c2d3541	0.010571779
56	0xbd27743c	-0.040882334
57	0x3d872318	0.065984905
58	0xbe8af4a1	-0.27139762
59	0xbea7f2ea	-0.32802516
60	0x3dbf44d4	0.093393
61	0x3ef90293	0.48634776
62	0x3e82447e	0.2544288
63	0x3f11af36	0.56907976

bc_renderer.mid_conv.weight f4 [64, 64, 1, 1]
0	0x3c79d462	0.01524839
1	0x3dded102	0.10879709
2	0xbd562de3	-0.052289855
3	0xbc0f03b4	-0.00872891
4	0x3d07aee3	0.03312577
5	0xbd2bee70	-0.04197544
6	0x3e013cdb	0.12620871
7	0x3d9bd552	0.07609047
8	0xbd660b97	-0.056163397
9	0x3d0cf01a	0.034408666
10	0xbe34f0b4	-0.17669946
11	0x3d74ee95	0.059797842
12	0xbd810824	-0.06300381
13	0xbdb7e2e0	-0.0897882
14	0x3ebbf398	0.36709285
15	0x3dc56536	0.09638445
16	0x3d046044	0.03231837
17	0x3da5acb3	0.080895804
18	0xbe0f5f55	-0.1400121
19	0xbd6c9c93	-0.05776651
20	0x3c3412a8	0.010990776
21	0x3d325927	0.043542054
22	0x3d2c415c	0.04205452
23	0xbdea305f	-0.11435007
24	0x3e1330b7	0.14374052
25	0xbd6450b8	-0.055741042
26	0x3dc95b96	0.09831922
27	0x3e19db7a	0.1502513
28	0xbd88ce99	-0.066800304
29	0xbd1eed98	-0.038800806
30	0x3e054a4e	0.13016626
31	0xbd24f8e0	-0.04027641
32	0x3dc14e84	0.09438804
33	0x3dd285b9	0.10279412
34	0xbd177ecc	-0.036986157
35	0xbcbdfab0	-0.023190826
36	0xbda4be53	-0.08044114
37	0xbcd1da91	-0.025616916
38	0xbcf223e8	-0.029558137
39	0xbca87fb7	-0.020568712
40	0x3d0cfcdc	0.034420833
41	0x3b83c44f	0.0040212045
42	0xbd728ad8	-0.059214443
43	0xbd637ef6	-0.055541
44	0x3e1e66cc	0.15468901
45	0xbe15082b	-0.14553897
46	0x3dfce677	0.12348645
47	0x3db71ce3	0.089410566
48	0x3dc333e1	0.095313795
49	0xbd879f52	-0.06622185
50	0xbd978734	-0.07398835
51	0x3c6dc07f	0.014511227
52	0xbdd9f0d5	-0.10641638
53	0xbe0b7134	-0.13617402
54	0xbe2de7e8	-0.16982996
55	0x3d7693cf	0.060199555
56	0x3daf9429	0.08573181
57	0xbe6b0abb	-0.22953312
58	0x3dcff02a	0.101532295
59	0xbd011577	-0.03151461
60	0x3dee7fe9	0.11645491
61	0x3ba39573	0.004992181
62	0x3d41f87b	0.04735611
63	0x3ce84c42	0.028356675
64	0x3e69f202	0.22846225
65	0x3e45e0c6	0.19324026
66	0x3ba4e83e	0.0050325682
67	0x3f2dd58b	0.67903966
68	0x3e139d0d	0.14415379
69	0x3db3fd5a	0.08788557
70	0x3d9ca166	0.07647972
71	0xbec281f5	-0.37989774
72	0x3cb4e1dd	0.022080356
73	0x3df026b0	0.11726129
74	0xbce0e4b0	-0.027452797
75	0xbda238ac	-0.079209656
76	0xbe0422ca	-0.12903896
77	0xbb3e2444	-0.0029013315
78	0xbe549895	-0.2076133
79	0x3c89f5e3	0.01684088
80	0xbd2f5d09	-0.042813335
81	0x3e62682d	0.22110052
82	0xbcf001d8	-0.029297754
83	0x3eae7f87	0.3408167
84	0xbdc07acc	-0.09398422
85	0xbd08619b	-0.03329621
86	0x3c5deabd	0.0135447355
87	0x3dc5dfc8	0.096618235
88	0xbd03dc5f	-0.032192584
89	0x3bd41d42	0.0064732144
90	0x3e9e54e6	0.30924147
91	0x3dcd5731	0.10026396
92	0x3d8f513f	0.06997918
93	0xbdb52845	-0.088455714
94	0xbce1fb9a	-0.027585793
95	0xbe4e9cca	-0.20176998
96	0xbe020ec6	-0.12700948
97	0xbe409c88	-0.18809712
98	0xbd63ef66	-0.05564823
99	0x3a163767	0.00057303015
100	0x3d586acb	0.05283622
101	0xbdfcf047	-0.12350517
102	0xbe3ed824	-0.18637139
103	0x3e20d8da	0.15707722
104	0x3e2396c5	0.15975483
105	0x3e3f233d	0.18665786
106	0x3f05a5aa	0.5220591
107	0xbdd0515e	-0.101717696
108	0xbe227318	-0.15864217
109	0xbde8b865	-0.113632955
110	0x3e91e9ba	0.28498632
111	0xbcafcf94	-0.021461286
112	0x3d122b56	0.03568586
113	0xbcb0802b	-0.02154549
114	0xbe200aa0	-0.15629053
115	0x3e41f3e0	0.18940687
116	0x3d42d74c	0.047568604
117	0x3d239853	0.03994019
118	0xbd67dbc5	-0.056606073
119	0xbbd8ec05	-0.0066199326
120	0xbdd4ba47	-0.10387092
121	0x3cc403fe	0.023927685
122	0x3ac710c0	0.0015187487
123	0x3d9e9bd0	0.077445626
124	0x3cec5c5f	0.02885264
125	0xbde7743c	-0.11301467
126	0xbd690697	-0.05689105
127	0xbe629312	-0.22126415
128	0x3de81643	0.11332371
129	0xbd21c41e	-0.039493673
130	0xbd866e0e	-0.0656396
131	0xbdcff942	-0.10154964
132	0x3e46a1ab	0.19397609
133	0x3e187d32	0.14891508
134	0x3ddbd36c	0.10733685
135	0x3c0b0a33	0.008486318
136	0xbd466d45	-0.04844405
137	0x3e2aaba6	0.16667041
138	0xbd9915d6	-0.07474868
139	0x3dc28a1d	0.09498999
140	0x3d7dde5a	0.06197963
141	0xbe083dc9	-0.13304819
142	0x3e8463db	0.25857434
143	0xbc3bbcde	-0.011458604
144	0xbd9251fa	-0.07144542
145	0xbd8438c2	-0.06456138
146	0xbdf16755	-0.11787287
147	0xbb9a131b	-0.0047019846
148	0xbd5d3aaa	-0.054011025
149	0x3ce8b7a7	0.028407885
150	0x3d88a48a	0.06672008
151	0xbd33321b	-0.043748956
152	0x3c9c9501	0.01911402
153	0x3d010610	0.031499922
154	0x3d1877b4	0.037223533
155	0x3de1df62	0.11028935
156	0x3d7d453f	0.061833616
157	0xbdb21443	-0.08695271
158	0x3e4feebc	0.20305914
159	0xbc37c495	-0.011216302
160	0xbe025e6d	-0.12731333
161	0xbcd8cf8e	-0.026466157
162	0x3dfc8ad5	0.123311676
163	0xbd821c1b	-0.06353017
164	0xbe0ee02e	-0.13952705
165	0x3dc35996	0.095385715
166	0x3d0ebc9a	0.034847833
167	0x3e029fdd	0.12756296
168	0xbc4bc12b	-0.012436192
169	0x3d3eb9ce	0.046563916
170	0x3dcc886e	0.099869594
171	0xbaf0c8d7	-0.0018370402
172	0xbc9e728e	-0.019341733
173	0xbe04cf09	-0.12969603
174	0x3dd88220	0.105716944
175	0x3ddd04f4	0.1079196
176	0x3c78c1bd	0.01518291
177	0xbdf113f5	-0.117713846
178	0x3ddb0514	0.10694328
179	0xbc61fabd	-0.013792691
180	0xbdb4627f	-0.08807849
181	0xbe8b85ed	-0.27250615
182	0xbe0b3590	-0.13594651
183	0xbd190777	-0.037360635
184	0x3df48509	0.11939437
185	0xbe5503f2	-0.20802286
186	0xbd2ffe3a	-0.04296706
187	0xbd872fa1	-0.06600881
188	0xbe0cde8b	-0.13756768
189	0xbda79fa6	-0.081847474
190	0x3d9242f8	0.071416795
191	0x3d8a3184	0.067477256
192	0xbdfd6347	-0.12372451
193	0xbce75020	-0.028236449
194	0x3db48648	0.088146746
195	0xbba8474a	-0.0051354514
196	0xbdba6e1d	-0.09103034
197	0xbdd29842	-0.10282947
198	0x3d484a88	0.048899204
199	0xbce22cef	-0.027609317
200	0xbe4b9651	-0.1988156
201	0xbdae30e4	-0.08505419
202	0x3ddf77aa	0.10911496
203	0xbbb04776	-0.0053796126
204	0xbd2db642	-0.042410143
205	0x3d943223	0.07236125
206	0xbc9bcee1	-0.019019546
207	0xbe7e9442	-0.24861243
208	0xbe0537c3	-0.13009553
209	0xbd133466	-0.035938643
210	0xbcabcded	-0.020972217
211	0x3d4ea447	0.050449636
212	0x3dd05066	0.10171585
213	0xbd3fbf2a	-0.046813168
214	0xbcc11a33	-0.023572063
215	0xbd05995f	-0.03261697
216	0xbe1c2e6f	-0.15252088
217	0xbb251f17	-0.0025195533
218	0x3d20b027	0.039230492
219	0xbdac9fbb	-0.08428904
220	0xbe006aa4	-0.1254068
221	0xbdf51b45	-0.11968092
222	0xbd1e1064	-0.03858985
223	0xbc310090	-0.010803357
224	0xbcf2c963	-0.029637044
225	0x3dea7737	0.1144852
226	0x3cdd6e9b	0.02703028
227	0x3bf5bd99	0.0074994084
228	0xbc7d7ac3	-0.015471163
229	0xbe17c85e	-0.14822528
230	0x3daf262f	0.08552205
231	0xbd827f9b	-0.06371995
232	0xbdb4b3e1	-0.08823372
233	0xbe101c69	-0.14073338
234	0xbda8d3c1	-0.08243514
235	0xbda0118e	-0.07815848
236	0x3ce0fa57	0.027463121
237	0x3da82bec	0.082115024
238	0xbdaa768b	-0.083233915
239	0xbd468bd2	-0.048473187
240	0xbccf1e25	-0.025282929
241	0xbe168be7	-0.14701806
242	0xbd869070	-0.06570518
243	0xbd9c5d6c	-0.07635006
244	0xbc4497fc	-0.0119991265
245	0xbd596014	-0.053070143
246	0x3dcb9cca	0.099420145
247	0x3dc2a350	0.09503806
248	0xbbf21117	-0.007387291
249	0xbd41d75a	-0.047324516
250	0x3d0984e4	0.033574
251	0xbdf6faa2	-0.12059523
252	0x3d1e2dd4	0.038617924
253	0x3d48bcb2	0.04900808
254	0x3dafa220	0.08575845
255	0x3c71304c	0.0147209875

bc_renderer.mid_conv.bias f4 [64]
0	0x3c633305	0.0138671445
1	0xbc24c5fc	-0.010056969
2	0x3dc72430	0.09723699
3	0xbe049386	-0.129469
4	0xbd04407a	-0.032288052
5	0xbc838c63	-0.016058153
6	0x3cfe7d49	0.0310656
7	0x3bc0be4a	0.005882059
8	0xbd57a023	-0.052642953
9	0xbdac49ae	-0.08412491
10	0x3d0c8fb7	0.034316745
11	0xbd856dbc	-0.06515071
12	0xbd918dde	-0.07107137
13	0xbdb76a4c	-0.089558214
14	0x3dab047d	0.083504654
15	0xbd98664b	-0.07441386
16	0x3df5c9a1	0.12001348
17	0x3b5d7363	0.00337907
18	0x3ca2ce2a	0.019873697
19	0xbdc81529	-0.09769661
20	0x3d113dee	0.03545945
21	0x3cfea695	0.031085292
22	0xbcac0707	-0.020999445
23	0xbd5cb21d	-0.0538808
24	0x3d8a3ad7	0.06749504
25	0xbda76f24	-0.08175495
26	0x3cd999b1	0.026562544
27	0xbdb8454b	-0.089975916
28	0xbd0cc860	-0.03437078
29	0xbdbf6a39	-0.09346432
30	0xbd3318a5	-0.043724675
31	0xbe3438c8	-0.17599785
32	0xbd9b7879	-0.07591338
33	0xbc776c0a	-0.015101442
34	0x3d87a483	0.06623175
35	0x3db2e7d7	0.08735626
36	0x3cb46671	0.022021504
37	0xbe09e1a6	-0.13464984
38	0x3dd3a8a6	0.103349015
39	0xbda73ba2	-0.08165671
40	0xbd0efc0a	-0.034908332
41	0xbcac713f	-0.021050094
42	0x3bb1afaa	0.005422552
43	0xbd890dd3	-0.0669209
44	0x3dd56306	0.10419278
45	0x3d2f1eaf	0.04275387
46	0x3e0ee950	0.13956189
47	0x3de7c69d	0.11317179
48	0x3db9a280	0.090641975
49	0x3d962f14	0.07333198
50	0xbd6b66bb	-0.05747102
51	0x3d079fac	0.03311126
52	0xbc803515	-0.015650311
53	0x3dfd27f0	0.12361133
54	0x3b9eb7d2	0.0048436904
55	0xbd8eef38	-0.06979221
56	0x3dc12733	0.09431305
57	0xbd95a96d	-0.07307706
58	0xbd241b51	-0.040065113
59	0x3bef3e6b	0.007301142
60	0x3ccf0979	0.025273072
61	0x3dc91a88	0.098195136
62	0x3d0409f0	0.03223604
63	0x3da8db1e	0.08244918

bc_renderer.decoder.weight f4 [3, 64, 1, 1]
0	0xbe3c4331	-0.18385006
1	0x3eb8cf22	0.3609553
2	0xbdef8e7b	-0.11697098
3	0x3d0cc014	0.034362867
4	0x3c14e483	0.009087685
5	0xbd88c9c1	-0.066791065
6	0xbdb08d39	-0.08620686
7	0xbe319624	-0.1734243
8	0x3dfe44cf	0.12415468
9	0xbd5b31e1	-0.053514365
10	0xbcad3bed	-0.021146739
11	0x3d1b3b59	0.037898395
12	0xbdccc478	-0.09998411
13	0xbdf4b216	-0.1194803
14	0x3e1fde06	0.15612039
15	0xbe036e08	-0.12834942
16	0x3e6edded	0.23326845
17	0x3e08f5d1	0.13375022
18	0x3df5d903	0.12004282
19	0xbd40b299	-0.047045324
20	0xbe110545	-0.14162166
21	0x3dc3817a	0.0954618
22	0x3da814d7	0.082071
23	0x3da5c8e8	0.080949605
24	0x3dc07905	0.09398083
25	0xbd131d42	-0.035916574
26	0x3df17c8b	0.11791333
27	0x3e06c270	0.1316011
28	0xbdf2fb91	-0.11864389
29	0x3eaa4dd8	0.33262515
30	0x3d7ce653	0.06174309
31	0xbebe1735	-0.3712708
32	0x396a55bc	0.00022347918
33	0xbd5eda95	-0.054407675
34	0xbdf9f3fc	-0.122047395
35	0xbd0f9a0c	-0.03505902
36	0xbdfcccc8	-0.123437464
37	0xbdaf1101	-0.08548165
38	0x3bf17bb6	0.007369484
39	0x3dc0eb71	0.09419907
40	0xbe5dacfe	-0.21648023
41	0xbd9f7ef6	-0.07787888
42	0x3d9b4063	0.0758064
43	0xbd287ce7	-0.04113474
44	0x3dd8cc89	0.10585887
45	0xbd965c17	-0.073417835
46	0xbe0a90fb	-0.13531868
47	0xbdab4d5a	-0.08364363
48	0xbdd0ac1a	-0.10189076
49	0xbda69da7	-0.081355385
50	0x3e496230	0.19666362
51	0x3e13e28b	0.14441888
52	0x3d02cc59	0.031933162
53	0x3da60010	0.08105481
54	0x3d2d7f42	0.04235769
55	0xbe07b65d	-0.1325316
56	0x3c2941e7	0.010330654
57	0x3e02c23a	0.12769404
58	0x3c21af04	0.009868387
59	0xbd571132	-0.052506633
60	0x3e6477e4	0.2231136
61	0x3d357e3d	0.044309843
62	0xbe4593b9	-0.19294633
63	0xbd2c922a	-0.04213158
64	0x3db0ba41	0.08629275
65	0x3f0e987f	0.5570144
66	0x3e295f44	0.16540247
67	0x3caf39dd	0.021389896
68	0xbd054abe	-0.032541983
69	0xbd33df9e	-0.04391443
70	0x3deec7b0	0.11659181
71	0xbd71d2ba	-0.059038855
72	0x3e137c53	0.14402895
73	0x3d10c051	0.035339657
74	0xbdcb4a9a	-0.099263385
75	0x3d4d5c11	0.05013663
76	0xbcd4f49d	-0.025995547
77	0xbb42ba45	-0.0029713076
78	0x3d1f5f3c	0.038909182
79	0x3c903cfc	0.017607205
80	0xbdf0578a	-0.11735447
81	0x3ce9572a	0.028483946
82	0x3e3d835d	0.18507142
83	0xbe1aee93	-0.15130071
84	0x3e4b88c1	0.19876386
85	0xbd3924d7	-0.04520115
86	0x3dda2141	0.10650874
87	0xbe0400e8	-0.1289097
88	0x3d474296	0.048647486
89	0x3b31d2d8	0.002713373
90	0x3d4750ea	0.04866115
91	0x3d235476	0.03987547
92	0xbe037592	-0.12837818
93	0xbdeac35b	-0.11463042
94	0xbc8eab75	-0.017415741
95	0xbea2ad86	-0.31773013
96	0x38b4caec	8.620866e-05
97	0xbdc75672	-0.09733285
98	0x3c3166b6	0.010827711
99	0x3d40f149	0.047105107
100	0x3d1f1dd8	0.03884682
101	0xbe06396c	-0.13107842
102	0x3da433f8	0.08017725
103	0xbe9ab4b5	-0.30215994
104	0x3e674b45	0.22587307
105	0x3d56738e	0.052356295
106	0x3d4e8c47	0.050426748
107	0x3cc3ece6	0.023916673
108	0x3d522520	0.051304936
109	0x3e13dd33	0.1443985
110	0xbdac0211	-0.08398832
111	0x3e2f8461	0.17140342
112	0xbda1872b	-0.07887109
113	0x3db59fc6	0.08868365
114	0xbcc67f46	-0.02423061
115	0x3e19212e	0.14954063
116	0x3cbe6a4c	0.023244046
117	0x3d92158c	0.07133016
118	0xbda92914	-0.08259788
119	0xbeaf2fc7	-0.3421614
120	0x3d2a4cd1	0.041577164
121	0xbc1739f8	-0.009230129
122	0x3e7ffb02	0.24998096
123	0xbd869e99	-0.06573219
124	0xbda26d29	-0.07930977
125	0x3dd91467	0.105995946
126	0xbe01f833	-0.12692337
127	0x3e0b2f24	0.13592201
128	0xbcfcef49	-0.030875819
129	0x3ec761eb	0.38941893
130	0xbceeb4f1	-0.029139014
131	0xbd916a9d	-0.07100413
132	0xbe034ca1	-0.128222
133	0x3e09f489	0.13472189
134	0x3d8ba85f	0.068192236
135	0xbce40472	-0.027834151
136	0x3e0816fe	0.13290021
137	0x3d3c6a95	0.046000082
138	0x3e366dc2	0.17815307
139	0x3d90a3ac	0.07062468
140	0xbdeb90a3	-0.11502197
141	0x3e2edb54	0.17075855
142	0xbd905afd	-0.07048605
143	0xbd912fc4	-0.07089189
144	0x3c0b7aa3	0.008513126
145	0x3d360e1a	0.044447042
146	0x3d4aaba8	0.04948011
147	0x3e62b6a9	0.22139992
148	0xbd707458	-0.058704704
149	0x3e0ed4dd	0.13948388
150	0xbe527262	-0.20551446
151	0xbd7771d0	-0.060411274
152	0x3d484ec6	0.04890325
153	0xbe2715d9	-0.16316928
154	0xbe38e98e	-0.18057844
155	0x3cf9167a	0.030406225
156	0xbd6a3082	-0.057175167
157	0x3d21c74c	0.039496705
158	0x3d927e65	0.07153014
159	0xbe82c74e	-0.25542682
160	0x388526e9	6.349182e-05
161	0xbdf51561	-0.11966968
162	0x3e06dc53	0.13169985
163	0xbcf62b5a	-0.030049969
164	0x3da19c3a	0.07891126
165	0xbe1112ff	-0.14167403
166	0x3ddd8ee6	0.10818271
167	0x3e3895f9	0.1802596
168	0x3bcece28	0.006311197
169	0x3bd62ff6	0.006536479
170	0xbd0d81cf	-0.034547623
171	0x3da1ad07	0.078943305
172	0xbd5684c9	-0.052372728
173	0xbbcc3847	-0.0062322947
174	0xbd86a2f5	-0.0657405
175	0xbd67199c	-0.056420907
176	0x3d985d02	0.07439615
177	0x3d5b11fc	0.053483948
178	0xbe07f34f	-0.13276409
179	0x3d22d14b	0.03975038
180	0x3c42acf9	0.01188206
181	0xbc409763	-0.011754843
182	0x3db73f0c	0.08947572
183	0xbea16f8a	-0.3153041
184	0x3b29dc79	0.0025918765
185	0x3de48e8d	0.11160002
186	0x3e502359	0.20325984
187	0x3e0889a1	0.13333751
188	0xbe6e60a0	-0.23279047
189	0x3cb42cbe	0.021993991
190	0x3cc00ed9	0.02344458
191	0xbd78c660	-0.06073606

bc_renderer.decoder.bias f4 [3]
0	0x3ddf89fc	0.1091499
1	0x3cd0a9d8	0.025471613
2	0xbd389c80	-0.045071125

bc_predictor.fc3.weight f4 [1, 96]
0	0xbb08257d	-0.0020774298
1	0x3c0dddde	0.008658854
2	0x3acac2d8	0.0015469445
3	0xbd7132ce	-0.05888634
4	0xbd01eaa2	-0.031717904
5	0xbe12b3ff	-0.14326476
6	0x3da2d190	0.07950127
7	0x3e250584	0.16115385
8	0x3d1b2b54	0.037883118
9	0xbe016111	-0.12634684
10	0xbd6a5c7e	-0.057217114
11	0x3dffef16	0.12496774
12	0x3ddd6a39	0.10811276
13	0x3d370c87	0.04468968
14	0x3e14c6f4	0.1452902
15	0xbe688a34	-0.2270897
16	0x3e560150	0.20898938
17	0xbcc0a9c1	-0.023518445
18	0x3d6b2452	0.057407685
19	0x3d1e0c1b	0.038585763
20	0x3eabd1c7	0.33558485
21	0x3d033c9c	0.032040223
22	0xbd8ff26d	-0.07028661
23	0x3d05b252	0.032640763
24	0x3e8d109e	0.2755174
25	0xbe003014	-0.1251834
26	0x3bafa3ad	0.005360088
27	0xbda8c708	-0.08241087
28	0x3e3b8bed	0.18315096
29	0x3d266e43	0.040632498
30	0xbe0787bc	-0.13235372
31	0x3d675477	0.056477036
32	0x3c7a1a48	0.015265055
33	0x3d92ac76	0.071618006
34	0x39c33e71	0.0003723982
35	0x3dc150f5	0.094392695
36	0xbdd13ce1	-0.1021669
37	0x3e002c89	0.12516989
38	0x3d13c08b	0.036072295
39	0x3d93771c	0.07200453
40	0xbd8cecbc	-0.06881091
41	0xbc546b35	-0.012965013
42	0xbe912f02	-0.28356177
43	0x3e3070ec	0.17230576
44	0x3df9a1a3	0.12189033
45	0x3d68558f	0.05672222
46	0x3e090376	0.13380226
47	0xbd01b298	-0.03166446
48	0xbd05e166	-0.03268566
49	0xbd63d358	-0.055621475
50	0x3b362303	0.0027791865
51	0x3d8dd674	0.06925669
52	0x3e58edfb	0.21184532
53	0xbe17efa3	-0.14837508
54	0x3cdf4600	0.027255058
55	0x3e3bb8b2	0.18332174
56	0xbe0b3c8b	-0.13597314
57	0xbe30bebd	-0.17260261
58	0xbe44e441	-0.19227697
59	0xbe19f90b	-0.15036409
60	0xbd8fc8b7	-0.07020705
61	0xbc894b22	-0.016759459
62	0xbe3e7a28	-0.18601286
63	0x3d5c8044	0.05383326
64	0xbda641a5	-0.081179895
65	0x3d8f5ae5	0.06999759
66	0x3ca2d640	0.019877553
67	0x3c550498	0.0130015835
68	0xbdf31ce9	-0.118707485
69	0xbd123300	-0.03569317
70	0x3da61b90	0.08110726
71	0xbdd3769b	-0.103253566
72	0x3d131b76	0.03591486
73	0x3caf3302	0.021386627
74	0x3e0fc136	0.14038548
75	0xbd10b8d6	-0.035332523
76	0xbd9fd599	-0.078044124
77	0x3ce536ca	0.027980227
78	0xbd361898	-0.04445705
79	0xbe189630	-0.14901042
80	0x3d297df9	0.041379903
81	0xbde63291	-0.112401135
82	0x3c7930de	0.015209405
83	0x3cc5ca62	0.024144355
84	0x3e26a2da	0.1627306
85	0x3d141b35	0.03615876
86	0x3cb7677e	0.022388216
87	0xbd320c2b	-0.043468636
88	0x3cb1d78a	0.021709222
89	0x3e0cc241	0.13745977
90	0x3c54e4a5	0.012993966
91	0x3d5e08f9	0.054207776
92	0x3d158cac	0.03651111
93	0xbd953edf	-0.07287382
94	0x3d49446a	0.04913751
95	0x3c1e7456	0.009671291

ex_renderer.encoder.weight f4 [64, 3, 1, 1]
0	0x3e84e438	0.25955367
1	0x3e2bfca4	0.16795594
2	0xbc797357	-0.015225253
3	0x3e40473c	0.18777174
4	0xbe64122e	-0.2227256
5	0xbd62d427	-0.055378105
6	0x3e46d493	0.19417028
7	0x3f0ec575	0.55770046
8	0x3e1f4d62	0.15556863
9	0xbd8a6684	-0.067578346
10	0x3e802881	0.25030902
11	0x3d3d4df7	0.04621693
12	0x3e429091	0.1900046
13	0x3d38d0fe	0.045121185
14	0x3e66d4d1	0.2254212
15	0x3efd8bbc	0.4952067
16	0xbe9f9b84	-0.31173337
17	0xbd952244	-0.07281926
18	0x3e3aaa2d	0.1822898
19	0x3d86ff66	0.06591682
20	0xbd52bbae	-0.051448517
21	0xbf0a27d0	-0.53967
22	0xbf03ecd5	-0.5153325
23	0xbf10cd5f	-0.5656337
24	0xbecb83fb	-0.3974913
25	0xbeafba24	-0.34321702
26	0xbed6926f	-0.41908595
27	0xbf1905c7	-0.5977444
28	0xbf29ece0	-0.6637707
29	0x3e8b5c12	0.27218682
30	0x3eb7e7c2	0.35919005
31	0x3ebf0112	0.37305504
32	0x3eb30753	0.34966525
33	0x3dbc9240	0.092075825
34	0x3e7e9bab	0.2486407
35	0xbec7a619	-0.3899391
36	0x3f0776f5	0.5291589
37	0xbd86cefe	-0.065824494
38	0x3f055733	0.5208618
39	0x3e35b239	0.17743768
40	0x3ef604bc	0.48050487
41	0x3ef83513	0.48477992
42	0xbe335fc4	-0.17517
43	0xbe588f81	-0.21148492
44	0x3d781edb	0.0605763
45	0x3d89099d	0.06691287
46	0x3e5e2b55	0.21696217
47	0x3ee89e1c	0.45433128
48	0xbed54ac2	-0.41658598
49	0x3c5527e3	0.013009998
50	0xbee355d6	-0.44401425
51	0x3f113e3d	0.56735593
52	0xbf00f31f	-0.50370973
53	0x3d583571	0.05278534
54	0xbe31ef1a	-0.17376366
55	0x3ea8c434	0.3296219
56	0xbdad8d6a	-0.08474238
57	0xbd19079d	-0.037360776
58	0x3ee72471	0.4514499
59	0x3f138367	0.5762238
60	0xbeb6cbf6	-0.35702485
61	0xbef514a4	-0.4786731
62	0x3cdf009a	0.027221967
63	0x3e0caa15	0.13736756
64	0x3e0e9a48	0.13926041
65	0x3f04c0ef	0.51856893
66	0x3eb05527	0.34439966
67	0xbe797725	-0.24361856
68	0xbebcf40c	-0.36904943
69	0x3ea994ef	0.3312144
70	0x3f013fe4	0.50488114
71	0xbea47f0a	-0.32128173
72	0xbec616fd	-0.38689414
73	0x3e856f17	0.26061317
74	0xbed9ffda	-0.42578012
75	0xbe165510	-0.14680886
76	0xbf220264	-0.632849
77	0x3e469ffe	0.1939697
78	0xbcea1c42	-0.028577928
79	0xbe87f23a	-0.26551992
80	0xbea35440	-0.31900215
81	0xbe2b527c	-0.16730684
82	0x3ec2ebce	0.3807053
83	0x3d5bad24	0.053631917
84	0x3eda11cc	0.42591703
85	0xbe8f0a03	-0.27937326
86	0xbe5fe27f	-0.21863745
87	0x3f147e7b	0.58005494
88	0xbf18af09	-0.5964208
89	0xbe8678b6	-0.2626397
90	0xbe9ea15c	-0.30982482
91	0x3f2268f3	0.6344139
92	0x3ecf1665	0.40446773
93	0xbdfe2738	-0.12409824
94	0xbe59132d	-0.21198721
95	0x3e70d154	0.23517352
96	0xbe0afc30	-0.13572764
97	0x3eaf2275	0.34205976
98	0xbe9747ff	-0.29547116
99	0xbeb56abc	-0.35432994
100	0x3d5ac713	0.05341251
101	0x3eea1189	0.45716503
102	0x3ee98a32	0.45613247
103	0x3dce2c59	0.100670524
104	0xbecb703e	-0.39734071
105	0x3e681255	0.22663243
106	0x3e325f5e	0.17419192
107	0x3e7933b4	0.2433613
108	0xbe939ee5	-0.28832164
109	0xbe3ff6f4	-0.18746549
110	0x3e769b27	0.24082623
111	0x3e3100a8	0.17285407
112	0x3eb39fbe	0.3508281
113	0xbecb09c6	-0.39655894
114	0x3ecc8623	0.39946088
115	0xbea82299	-0.32838896
116	0x3d11ed5a	0.035626747
117	0xbe4fea62	-0.20304254
118	0xbdb205f3	-0.08692541
119	0x3f03a5f2	0.5142509
120	0x3f031943	0.5121042
121	0x3e4eb2a4	0.20185333
122	0xbedbf6a2	-0.42961603
123	0xbea84a30	-0.328691
124	0x3ed12d1a	0.40854722
125	0xbe64a39b	-0.22328036
126	0xbefd1b7a	-0.49435025
127	0x3e00d3e1	0.12580825
128	0xbf0c05d1	-0.54696375
129	0xbda90404	-0.08252719
130	0xbe376fe4	-0.17913777
131	0xbd2ac0dc	-0.04168783
132	0xbe2d23f9	-0.16908254
133	0xbd2d253c	-0.042271838
134	0xbecb2366	-0.39675444
135	0xbee1f45c	-0.44131744
136	0x3e321915	0.1739238
137	0x3f090fc7	0.535397
138	0xbee79df7	-0.45237705
139	0xbf14b94d	-0.58095247
140	0xbe9d4297	-0.30714867
141	0x3f0f5bd7	0.5599951
142	0x3f0e2b42	0.55534756
143	0xbf22373c	-0.6336553
144	0x3e2cb1a2	0.16864637
145	0x3df0692d	0.11738811
146	0x3f13c5c4	0.5772364
147	0xbe8984dc	-0.26859176
148	0x3e97113b	0.29505333
149	0xbec495ec	-0.3839563
150	0xbf04f71c	-0.5193956
151	0x3dbce85a	0.09224005
152	0xbea65fcf	-0.3249497
153	0xbd0c7b71	-0.03429741
154	0xbe8e0766	-0.2774002
155	0xbed62846	-0.418276
156	0x3ea72db4	0.32652056
157	0x3ec3fc43	0.38278398
158	0x3eed68ed	0.46369115
159	0x3e066e7a	0.13128081
160	0xbf0b3f30	-0.5439329
161	0xbef5aebe	-0.4798488
162	0x3cc03217	0.023461385
163	0xbcbe772d	-0.023250187
164	0xbf0d6fc5	-0.5524867
165	0x3f118b99	0.56853634
166	0xbe01a902	-0.12662128
167	0x3e2f51be	0.17121026
168	0xbefd6e8a	-0.49498397
169	0x3e41a78a	0.18911567
170	0x3dd2e69d	0.10297892
171	0x3ea289e2	0.3174582
172	0x3dc0f758	0.09422177
173	0xbeec2224	-0.46119797
174	0x3f2531d7	0.64529175
175	0xbeef43e0	-0.46731472
176	0x3eb2b01f	0.34899995
177	0xbed387cd	-0.41314545
178	0x3ee926c6	0.45537394
179	0x3e783ac1	0.24241163
180	0x3de92aa7	0.113850884
181	0xbe789c52	-0.24278381
182	0x3ef5d9a3	0.48017606
183	0x3edd8b0f	0.43270156
184	0xbe1d8a2f	-0.15384744
185	0xbe4a8355	-0.19776662
186	0x3e24fd85	0.16112335
187	0x3ee6261e	0.44950956
188	0x3f1be1e6	0.6089157
189	0x3ef18905	0.4717485
190	0x3e589605	0.21150978
191	0xbd9d3aed	-0.07677255

ex_renderer.encoder.bias f4 [64]
0	0xbeac78d4	-0.33685935
1	0xbea9a155	-0.331309
2	0x3ec4c246	0.3842947
3	0xbef0ac88	-0.4700663
4	0x3d1dbddf	0.038511153
5	0x3ec8a774	0.39190257
6	0xbed9c286	-0.42531222
7	0xbed2af07	-0.4114916
8	0xbf005935	-0.5013612
9	0x3ea0a2de	0.31374258
10	0x3dfe9327	0.12430411
11	0x3e8c98e6	0.27460402
12	0xbd21c85c	-0.03949772
13	0xbe76299b	-0.24039309
14	0x3edb1cdf	0.42795464
15	0xbea0a702	-0.31377417
16	0xbe9fbecd	-0.31200257
17	0x3eba3ad1	0.36372998
18	0x3ef9e9e9	0.48811272
19	0xbe9991ae	-0.29993957
20	0xbf0911ac	-0.5354259
21	0x3c2d0ff9	0.01056289
22	0x3d90fa88	0.07079035
23	0x3dab1728	0.08354026
24	0x3e9ba718	0.3040092
25	0x3da006bb	0.07813784
26	0xbe9be738	-0.30449843
27	0xbdc47c42	-0.09594013
28	0x3e7ff28f	0.24994873
29	0x3dca7ab6	0.098866865
30	0xbec2b6f4	-0.38030207
31	0x3be0cf71	0.0068606664
32	0xbdd28590	-0.10279381
33	0xbe791abd	-0.24326606
34	0x3e62126b	0.22077338
35	0x3e3567ed	0.17715426
36	0x3eeebe22	0.46629435
37	0x3ecf3baa	0.40475208
38	0xbc6c8832	-0.014436768
39	0xbe9fd289	-0.31215313
40	0x3e15338c	0.14570445
41	0x3e4dd2c4	0.20099932
42	0x3eb8cf84	0.36095822
43	0x3ea54563	0.322795
44	0x3e9069f6	0.28205842
45	0x3dc0a72f	0.09406888
46	0x3db3542c	0.08756289
47	0x3e5684a4	0.20949036
48	0xbf005bfc	-0.50140357
49	0x3e4e1fba	0.2012929
50	0x3e3e17a8	0.18563712
51	0x3e947eb5	0.2900292
52	0xbe02a93f	-0.12759875
53	0x3e1aa8e8	0.15103495
54	0x3e17a7d2	0.14810112
55	0xbeed7b44	-0.46383107
56	0xbe32d5d0	-0.17464375
57	0x3e838afc	0.25691974
58	0xbeaf9f8b	-0.3430141
59	0xbe71fa84	-0.2363072
60	0x3e54db8c	0.20786875
61	0x3e602838	0.21890342
62	0xbed51469	-0.41617134
63	0x3e514781	0.20437433
